saved_models/keypoints_model_3.pt (torch_old, 499793 bytes, 12 tensors)

conv1.weight f4 [32, 1, 5, 5]
00000000: 558e e2bd 430f 30be 055d 9f3d 633a 233e
00000010: 50df 2fbd d94d 26bd 5efd 13bd 7f8c 203e
00000020: aaaf e4bd 3f03 80bd acc9 b8bd d8ca 063e
00000030: a9f6 3fbe c256 2abe 936e 133c 3461 e1bd
00000040: 13a1 583d 26cf 0c3d 4a3c 103e 3a5f 46be
00000050: aa02 e9bc bcbc 943c e872 0fbe 2996 063e
00000060: 0cb6 25be 19d4 0e3e e06b fbbb 7353 58bd
00000070: 758e 79bd d5ed 273e 42c8 113e 60da 333e
00000080: 281f e5bd ff36 283e cc23 35be 6e9b 243e
00000090: cca3 0ebe f9e7 41be 3ed1 3bbe 5b9e d33c
000000a0: 26ee e63d a79a aa3d 14d8 413d 32ce e2bc
000000b0: 0140 53be c44e 88bd b80d d53c 3ef9 f3bc
000000c0: 29dc f4bd b8d7 30be 7524 b4bc 12a1 403e
000000d0: f53b 05bd b95b 43be 630d 1dbe b3a5 0b3e
000000e0: 4cf0 9e3d b30c f93b 9de7 3dbe a940 bb3d
000000f0: 16d1 b8bd da8f 35be 48d5 793d acb7 aa3d
00000100: 86d1 bb3d 9f92 8c39 3123 823d 1c77 d0bd
00000110: fcab 2ebe 4f8f 453d ce12 8d3c 7ba5 9f3c
00000120: e638 fcbd dc9b e03d 28c4 26be 8c14 20be
00000130: 061e f5bd 3274 cd3c 34c9 f4bd fceb 233e
00000140: 25d2 b53d 8770 a93d 3174 2b3d b806 c2bd
00000150: f50e 32be 0873 8e3c 08c3 10be 87ef 69bc
00000160: c682 efbd a4b0 3a3d 33d9 ebbd 7505 33be
00000170: 92ed 6d3c 86bb 3e3e 0da3 a83d 4ef3 263e
00000180: 73b9 55bd afab 233e 5f66 123e bb0d 203e
00000190: cab2 053e 2b47 36be f021 3bbe a937 133e
000001a0: 64fd 3dbe 0852 1a3e 4dcb 09be f7fd 063e
000001b0: b94e abbd d8ff 2ebe 6f0c c83d a1a7 20be
000001c0: b255 9cbd 9745 28be ca3d 083e 795a f6bd
000001d0: baf5 30be 4f7a a5bc c6a3 2c3e 399d a1bd
000001e0: d2f8 773d 67ff b8bd 5bed a03d 522b 0a3e
000001f0: c6d6 c8bd 67bd 1d3e b31b dcbc a22d 9a3b
00000200: bae9 363e 9726 bfbd 49ac d2bd 7667 803d
00000210: ad07 31be 6b86 23be 76d8 fdbd c385 06be
00000220: 76f0 fb3d 445c 2b3e 421f 563d 8b6c 453e
00000230: d449 973d e75a 2abe 7369 df3c 88f5 00be
00000240: 8543 93bd 2bb9 b73a 9136 17be 889a c1bd
00000250: 61d9 863d 88bf b83c 8cd3 3ebd 5e14 b13d
00000260: a5e3 d9bd f745 21be 5826 f4bd 0796 4e3d
00000270: 1a93 333e 445d a9bd e400 b2bd d744 4b3d
00000280: 5cad 63bc b2a1 f2bd 133f adbd dcfe 1b3e
00000290: 5c13 cf3c 6021 3b3e 2b87 173e 4b20 b3bd
000002a0: 3f70 183e 7d18 15bd 8d8d 2d3e f5ee 10be
000002b0: 6dcd 3d3e cde3 fabd 56f7 a8bd b6bc dfbd
000002c0: 0df0 c23c 72f3 94bd edeb 3d3e dc27 0fbe
000002d0: bf68 91bd d241 f1ba e0c5 c0bd 809d 7bbd
000002e0: 6c62 173d 4821 0bbd 645c 3d3e 5756 efbd
000002f0: 0952 183d d32f 193e faad 2f3e 88a8 8ebd
00000300: c7ab 0a3e ef10 f9bd d516 553e 59bb 30be
00000310: 0f66 04be 7861 903d afc7 a93d b84e cf3d
00000320: 1cfc d93d debd 2abe e626 fbbd 9040 0b3e
00000330: d1a3 eb3d a3af 0dbe db3c fcbc d9f5 013e
00000340: ec2a 813d 7b5d dfbd f80b 48be 3ad7 4bbc
00000350: 993c 2f3e 60a1 073d 3843 0bbe 33b7 943c
00000360: f1e4 42be 9f21 16be 0796 23be de7b 4a3e
00000370: 6db4 bebc 69c7 debd 35e8 ebbc 8745 333e
00000380: b17c d33d 2bab 273e 931e 963d 0029 b9bb
00000390: bf76 16be 9d28 30be 6dae 153e ec19 14bd
000003a0: 0581 28bc 22fc aa3d eff4 f13d 4139 c43d
000003b0: d2ea 2cbe ea1b 123e ebca b63d fa6b 443e
000003c0: 028a c0bd 2fcb f9bb ceef af3d c2f8 b4bc
000003d0: 4eab 2cbd 1082 47bd df62 8dbd db10 73bd
000003e0: 6754 c03c b41d ce3d 501b ea3d cd1a 31be
000003f0: b2fe 8cbd a5ad 9b3d 1210 3dbd 2c12 02be
-0.11062304 -0.17193322 0.07781414 0.15940242 -0.042937577 -0.040601585 -0.0361303 0.15678595
-0.11166318 -0.06250619 -0.09022841 0.13163316 -0.18746437 -0.16634658 0.008998531 -0.11004868
0.052887987 0.03437724 0.14085498 -0.19372264 -0.028443653 0.018156402 -0.14008677 0.13143219
-0.16182727 0.13948096 -0.007672772 -0.05281396 -0.060926873 0.1639932 0.14236549 0.17563772
-0.11187583 0.1642723 -0.17689437 0.16074917 -0.13929671 -0.18936147 -0.18341538 0.025832346
0.11275892 0.08330279 0.04732521 -0.027686212 -0.20629884 -0.06655648 0.026007518 -0.029781934
-0.11956055 -0.1726979 -0.02199004 0.18811443 -0.032527883 -0.19077958 -0.15337138 0.13637428
0.07760677 0.007600391 -0.18545385 0.09143192 -0.09024255 -0.17730656 0.060994416 0.08335814
0.09170823 0.00026812122 0.063543685 -0.10178968 -0.17057794 0.048232373 0.01722088 0.019488087
-0.1231554 0.10967228 -0.16285765 -0.15632838 -0.11968617 0.02507982 -0.11952439 0.1600799
0.088779725 0.08273416 0.041858856 -0.09473938 -0.17388518 0.017388836 -0.14136899 -0.014278299
-0.11694865 0.045578614 -0.11516037 -0.1748255 0.014521973 0.18626222 0.082342245 0.16303751
-0.05217881 0.15983461 0.14296864 0.15630238 0.13056484 -0.17800586 -0.18274665 0.14376701
-0.18553692 0.15070355 -0.1345646 0.13182817 -0.083646245 -0.17089784 0.097679965 -0.15688945
-0.076335326 -0.16432796 0.1330482 -0.12028975 -0.17281237 -0.020199923 0.1685935 -0.07891316
0.060540028 -0.09033089 0.07857772 0.13493088 -0.0980659 0.15404283 -0.026868677 0.004705147
0.17862597 -0.09333532 -0.10286767 0.062697336 -0.17288084 -0.15969245 -0.12394802 -0.13136964
0.12301724 0.16734415 0.052275904 0.19279687 0.073871285 -0.16636239 0.027271962 -0.12593663
-0.07190613 0.0014016976 -0.14766909 -0.094533026 0.065844305 0.022552267 -0.046588466 0.08646463
-0.10639123 -0.15749346 -0.11921376 0.050436046 0.17536584 -0.08269742 -0.08691576 0.049626198
-0.013896313 -0.11847247 -0.08459296 0.1523394 0.025277786 0.1827445 0.14797656 -0.08746394
0.14886568 -0.036400307 0.16948529 -0.14153655 0.18535395 -0.12250481 -0.082503006 -0.10924666
0.023796106 -0.07272996 0.1854703 -0.13980049 -0.07100057 -0.0018406457 -0.09412742 -0.0614295
0.036959097 -0.033967286 0.18492275 -0.1168639 0.03718761 0.1495965 0.1715621 -0.069657385
0.1354209 -0.12161433 0.20809491 -0.17258967 -0.12929557 0.07049841 0.0829004 0.10122436
0.10643789 -0.16673991 -0.12263279 0.13598847 0.11505855 -0.13836531 -0.030790737 0.1269144
0.06307015 -0.10906502 -0.19535816 -0.012441451 0.1711296 0.033112884 -0.1359986 0.018153762
-0.19032647 -0.14661263 -0.159752 0.19773814 -0.023279393 -0.10877878 -0.028797248 0.17506991
0.103265174 0.16373889 0.0733005 -0.0056506395 -0.14693736 -0.17202993 0.1461732 -0.036157534
-0.010284667 0.08348872 0.118142955 0.09581233 -0.16886452 0.14268461 0.08925422 0.19181815
-0.09401323 -0.0076230983 0.08590661 -0.022091273 -0.042155556 -0.04870802 -0.06903624 -0.059342247
0.023477746 0.10064259 0.11430991 -0.1729538 -0.06884517 0.076014794 -0.046157904 -0.12702245

conv1.bias f4 [32]
00000000: 0e0f 463e dbb8 3e3e 9d20 993d 18cf ea3d
00000010: 5c92 9bbc 85bb 0ebe 3516 d1bd ee66 39be
00000020: f5fe 143c bfed 3dbe e1b3 413e 0e39 42be
00000030: eefe d7bc 54dc 26be c9b6 12be 4e4e 1e3d
00000040: 0239 acbd 15ba 39bc 313d 963d 230e 3e3d
00000050: 0b30 183e ee3f 0c3e 3788 39be 8ae9 1f3e
00000060: 38ed 09be e041 80bc ad4d 8abb 5afe f13d
00000070: 67c8 edbc 8a60 2c3d a34a 9f3c c38c f53a
0.1934168 0.18625204 0.074769236 0.11465281 -0.018990688 -0.1393872 -0.10209314 -0.18105671
0.00909399 -0.18547724 0.18916275 -0.18967077 -0.026366677 -0.16294986 -0.1432754 0.038648896
-0.08409311 -0.011335869 0.0733589 0.0464002 0.14862077 0.13696262 -0.18118368 0.15616432
-0.13469398 -0.015656412 -0.0042206855 0.11816092 -0.029026223 0.042084254 0.01944477 0.0018733967

conv2.weight f4 [32, 32, 5, 5]
00000000: fdbd 9abc b8fe 5dbc 3028 8abc 5297 c03c
00000010: 6c1b 0abd ddb9 b83c 2852 ed3c 04d4 0cbc
00000020: 40e9 00bd 33c0 0fbd ed4d d93c b865 1e3c
00000030: 9f6e 04bd 9ba3 b93c 047e 19bd 1c0a 573c
00000040: 2a42 78bc 1917 d6bc d591 7e3c 8535 4ebc
00000050: 82e5 00bd 6fba d4bc c1ca 193c 456f 7ebc
00000060: e3fc d0bc 20ee a4bc 28d8 c13c 08be c63c
00000070: 9d98 e6bc 47d0 bfbb 0cac 213b 1cc1 703c
00000080: 06f2 00bc 0464 923c b774 dd3c 4e3c 13bc
00000090: 3a45 973c 9c4a 1d3c b704 cfbc fc6a c93c
000000a0: 57de 623b 6280 d13c 83d2 efbc da52 7438
000000b0: 14c1 08bd 79dc 123c e1ec 71bc 5861 c3bc
000000c0: 26f2 68ba 83a3 a6ba 5115 9ebc 521d ea3b
000000d0: 543f f5bb 5a77 3e3c ec44 e63c 25db c8bc
000000e0: 3866 0dbd 28ea b3bc d840 acbc c8f6 31bc
000000f0: a15b 15bd fa63 5dbc ddd2 54bc 7878 793c
00000100: d7a4 c3bb 31dc 92bc a36d 9339 0992 15bd
00000110: 13f8 903c bd01 c23b 7011 1f39 83c2 b63c
00000120: 17bb 4abc 5deb c53c c3f1 873c 9c18 6dbc
00000130: 4d7a a73b 35ff 0bbc d35c fabc a743 cd3c
00000140: 9b81 c4bc 8ce9 d0bb 56d7 013c d24d e1bc
00000150: 9333 0bbd bfb0 90ba 15f8 953c 9d29 64bc
00000160: dcf7 fabb b748 57bc 52ea e6bc f9df e6bc
00000170: f117 d53c df4c 19bd d9b6 d4bc 71bf 8f3c
00000180: 8744 15bd 35d7 bc3b f166 adbc 8760 19bd
00000190: c821 7c3a b8dc e0bb e8e8 5cbb 79da 96bc
000001a0: e0b3 193c fb5c 86bc b8c3 03bc bbc3 e5bc
000001b0: c9ce 0bbd 561c 6ebc e6aa f63c 22a6 b83c
000001c0: a7b3 983a 4295 b03c 4cfb 03bc e8c1 82ba
000001d0: da47 24bc a28e e33c 9f14 e3bc 198f aa3c
000001e0: 5049 ed3b 6cac 203c 713d 9f3c 5167 c9bb
000001f0: 7307 fcbc 3a1c 993b cff8 933b 7e36 61bc
00000200: 98a5 0a3d 9ee9 13bc abb4 463b 617e 0c3d
00000210: 2c06 1cbc 66b0 023d 8f8f 5e3b a3e4 053c
00000220: 6002 c73c 02ea 16bd 6a03 ed3c e5aa 18bb
00000230: bb90 bfbc b21d 63bc fc3d e9bc 9c6a 8c3c
00000240: 037c 02bd d87f aa3c 35b0 bebc 1407 2fbc
00000250: 8bd5 043d 4073 fb3b 4395 273b 8bda f5bc
00000260: 789a 9fbc 6fe1 c03c deaa 16bd df73 babc
00000270: 20f7 703c 69f3 83bc 2c60 123b ed06 41ba
00000280: 865c b93c eadb 153c b5b8 bebc fc81 f73b
00000290: ffa9 173c d7c8 a33b ad30 bcbb 68d6 1cbd
000002a0: 7400 593c 4a81 08bb bf0b 23bb 9e51 c23b
000002b0: b24e 153c 620a 473c bd39 d3bc 0728 5cbb
000002c0: 6d86 313b 06a7 9f3b 96af 9fbc a96a b53c
000002d0: 0758 953b 69fc 183d d191 90bb b89a 12bb
000002e0: 8488 f7bc c429 6b3c 807f e13b f111 babc
000002f0: 3e6c b93c 9083 de3c 414a 8b3c c46f 41bc
00000300: e402 56bc 4a20 a13b 5560 8fbc 0d7d 003d
00000310: 42b8 063d da3c 01bd b52e bd3a 43ce bf3c
00000320: 3588 eabc 881c 7e3b 96e5 f6bc ff68 d53c
00000330: 3a4d bfbc 998a ce3c 3ea2 0dbd 282a ccbc
00000340: 5389 e33c 85b8 fabc 5159 e93b 1354 163c
00000350: 6d07 803c b2a7 86bc 9bcc c43c cbf3 b4bc
00000360: a38a b33c ffe5 d7bc 9860 0b3b d3a9 8dbb
00000370: 1e3e 853c 628c 03bd 9c36 06bd 64d3 c13c
00000380: 1463 b43c 9f89 b7bc 065d fd3b 795d ed3c
00000390: 42a0 ebbc ae96 96b8 84ac 3dbc a6a5 02bd
000003a0: 1738 12bd 5327 8bbc d345 69bc a8f7 88bc
000003b0: 1c8b 7d3c cd35 763c 5af3 1bbd c32f c33c
000003c0: ae56 a1bc 2d3d 9c3c f1ef e93c c4d9 afbb
000003d0: 9dcb 1c3c 7d9c babc dfd5 1bbc eecd 223c
000003e0: d5c0 88bb 1ad4 993c f456 11bc f605 b33c
000003f0: ab88 c7bc 5967 263c db78 813b a77d 853c
-0.018889422 -0.013549499 -0.016864866 0.023509655 -0.033717558 0.022549564 0.02896984 -0.00859547
-0.031472445 -0.035095405 0.026526416 0.009667806 -0.03233206 0.022661021 -0.037473693 0.013124969
-0.0151524935 -0.02613406 0.015537699 -0.012586002 -0.031468876 -0.025967805 0.009386719 -0.015529458
-0.02551121 -0.020133078 0.023662642 0.024260536 -0.028148944 -0.005853686 0.0024669198 0.014694478
-0.007870203 0.017869957 0.027033193 -0.008986546 0.018465627 0.009600308 -0.025270803 0.024587147
0.0034617388 0.025573913 -0.029275184 5.8251295e-05 -0.03338726 0.008963698 -0.014765949 -0.023850128
-0.00088861806 -0.0012713525 -0.019297274 0.0071446085 -0.007484356 0.011625135 0.028109036 -0.024518559
-0.03452131 -0.02196224 -0.021027014 -0.01086206 -0.036464337 -0.013512606 -0.012989727 0.015226476
-0.005970578 -0.017927261 0.0002811971 -0.036516223 0.017696416 0.0059206174 0.00015169918 0.022309547
-0.012373707 0.024160082 0.016594773 -0.014471199 0.005111015 -0.008544733 -0.03056184 0.025056673
-0.023987582 -0.006375497 0.007924875 -0.027502928 -0.033984732 -0.0011039003 0.018306771 -0.013925937
-0.0076589417 -0.013139895 -0.028187905 -0.02818297 0.026012393 -0.037426826 -0.025966095 0.017547341
-0.036442306 0.0057629594 -0.02116725 -0.03744557 0.0009618071 -0.006862249 -0.003370816 -0.018414723
0.009381264 -0.016401758 -0.008042268 -0.028047433 -0.034132753 -0.014533123 0.030110788 0.022540156
0.001165022 0.021555547 -0.008055519 -0.0009976001 -0.010026896 0.027777974 -0.027719794 0.020820187
0.0072414055 0.009806734 0.019438477 -0.0061463495 -0.03076527 0.0046725543 0.0045157443 -0.013745902
0.03384933 -0.009027867 0.003032009 0.03430021 -0.009522956 0.031906508 0.003396008 0.008172187
0.024293125 -0.03684426 0.028932292 -0.002329522 -0.023384443 -0.01386206 -0.02847194 0.017140679
-0.031856548 0.020812914 -0.023277381 -0.01068284 0.032430213 0.007673651 0.0025571145 -0.030011436
-0.019482836 0.023544995 -0.036784045 -0.02276033 0.014707357 -0.016107278 0.0022335155 -0.0007363398
0.022627126 0.00914667 -0.023281435 0.007553337 0.009256839 0.004998307 -0.0057431073 -0.03829041
0.013244737 -0.0020829015 -0.0024878827 0.0059301397 0.009113001 0.012148472 -0.025784368 -0.0033593194
0.002708818 0.0048722057 -0.019492906 0.022145586 0.004557613 0.037350092 -0.004411914 -0.0022370052
-0.030216463 0.014353219 0.0068816543 -0.022713633 0.022634622 0.027162343 0.01700318 -0.011806432
-0.013062213 0.0049171792 -0.01750199 0.031369258 0.032890566 -0.031552173 0.0014433475 0.023413783
-0.028629402 0.003877433 -0.030138772 0.026051043 -0.023352254 0.025212573 -0.034578554 -0.024922445
0.027775442 -0.030605564 0.007121243 0.009175318 0.01562854 -0.016437385 0.024023345 -0.022088906
0.021916693 -0.026354788 0.002126729 -0.004323223 0.016264971 -0.0321163 -0.032766923 0.02366037
0.0220199 -0.02240449 0.0077320365 0.028975235 -0.02876294 -7.180624e-05 -0.011576775 -0.031896256
-0.035698023 -0.016986525 -0.014237839 -0.016719654 0.015475061 0.015027476 -0.038073875 0.023826485
-0.019694652 0.01907214 0.028556796 -0.005366536 0.00957003 -0.022779698 -0.00951144 0.009936793
-0.004173378 0.018777896 -0.008870829 0.021853428 -0.02435716 0.010156476 0.0039511747 0.016295267

conv2.bias f4 [32]
00000000: 16d8 98bc b8f1 813b 6c05 003d ad73 d1bc
00000010: f137 2fbd 5cd2 8a3c 99d0 b53c 3ddc 733c
00000020: 88a8 f4bc 6e94 c9bc 5e76 31ba 272e 2fbd
00000030: 6116 2a3c 97dd f33c e2ed 3ebc fb58 a4bc
00000040: f535 e03c f151 d13c 3a3e 85bc 8735 9f3c
00000050: 566e 2d3c c701 50bb 6f01 ac3c 48d3 293a
00000060: 3291 b7bb dd9b 793c 7e54 22bd c4cd cfbb
00000070: 5616 19bd f28c f83c 9b70 8dbc 3b6c d7bc
-0.018657725 0.0039655827 0.03125517 -0.025567854 -0.04277796 0.01694601 0.022194194 0.014884052
-0.029865518 -0.02460691 -0.0006769652 -0.042768624 0.010381312 0.029768748 -0.011653395 -0.02006196
0.027369479 0.025551768 -0.016265023 0.019434704 0.010585388 -0.003173934 0.020996777 0.0006478322
-0.0056020254 0.015234915 -0.03963136 -0.006341668 -0.037374817 0.030340645 -0.017265609 -0.026296725

conv3.weight f4 [16, 32, 3, 3]
00000000: cf0f 28bd d611 6ebc 6448 943c d9a0 50bd
00000010: ec48 15bd 515d d63c 0d10 42bd 8a04 fcbc
00000020: 4165 673d 7b1a f73c 4243 a7bc 4263 96bc
00000030: 1e36 b13c 1890 b73c 3187 30bd e7f7 c7bc
00000040: b546 1d3d d1e7 13bd cbb7 1dbc 10d2 3c3d
00000050: 2fe2 18bc e13e 1b3d 66ed 4dbd 46cd 313d
00000060: e311 55bd d8f1 4dbd 050c 2cbc 8fc3 843d
00000070: 34fd c0bc 661b 0ebc 7ae2 833d f600 0abb
00000080: 837a 94bc 1afc dc3c 195b 29bc 7404 9ebc
00000090: cc33 c5bc 5963 2e3d d979 c4bc 362a 52bd
000000a0: 8cd5 a3bc 5ff5 59bc 25ec 2c3d 9817 10bd
000000b0: 7342 0b3d efb4 0ebc 0373 303d 7214 aebc
000000c0: 1dff d73c 4dbe a23c 0ddc 23bd f098 41bd
000000d0: 2230 353c b856 ac3c dfa2 a23c 1354 30bc
000000e0: 45aa 78bd 7ea0 ed3b 91e6 dbbb 1b82 dc3c
000000f0: 9e53 083d 9b75 04bd 6923 79bc 2213 9ebc
00000100: ced2 03bb 213c b23b d139 e53c a7ee 3bbd
00000110: f98c 7fbc 7e19 c0bc 766a cdba 8ebe 443d
00000120: 1130 29bd 548d 03bd 04ab 563c 920c 27bd
00000130: 1b7b b0bc b72f ac3c 575f 48bc fb73 463d
00000140: 8304 173d 61d6 2abb 7c62 3cbd 3c72 2fbd
00000150: d8da 8bbc 0646 7cbd a092 66bd 9250 15bd
00000160: d3a8 0abd 3e9d 82bd a74f f7bc d7b6 313d
00000170: a12b f33c 09b5 6f3c 8b9b 4ebc e367 073d
00000180: f066 0cbd d0a3 2dbd 1661 803b 98da 55bd
00000190: 0aee f9bc f5a3 993c d62b 2dbd 38f8 213d
000001a0: b1ef 5e3d f566 433d ecff 8abc 09be 42bd
000001b0: 0500 ef3b f792 0b3d 0d37 e3bc 063d d6bc
000001c0: 8dce f43c 3d3c 92bc 77e7 8b3c e979 92bd
000001d0: 84f3 6dbd 56e5 763c 12f5 13bc e1f6 77bd
000001e0: 7058 243c d376 70bc 7297 6dbd 644b debc
000001f0: 958c 4f3d 4ecd 3e3d 66ea a93c 3de7 943a
00000200: 04bf d3bb 0840 b4bb eadf 45bd 83f1 283d
00000210: f88e 35bd 455f 5b3d 4fe7 c9bb 36c9 503d
00000220: f752 dfbb 1659 4bbc e860 d63c 5248 7cbd
00000230: a226 1fbc 16ab 513d af24 a23c b30d 4e3d
00000240: 7bfc 70bd b98f 493d 7e9b 7bbd 8b6f 903c
00000250: 0342 8b3c ab08 513d 7b3c 3d3d 960c 163c
00000260: 1c5b 09bd d16a 5e3d f1d1 a93b b9cf 36bd
00000270: 751c 1cbc ec69 133d 6d17 443c 7476 eebc
00000280: 17fa 8d3c 6160 903a 60b5 f53c ec3a 45bd
00000290: 686a 863c 01a2 40bd cddb cebc 712e 533d
000002a0: 17d8 e43c 5fc7 013d 2fe9 103c 44f9 6bbd
000002b0: 681c 12bd 6d31 063d 7037 edbb c13f 603d
000002c0: f895 55bd 84e1 94bc d6a3 863c 6105 203d
000002d0: 85ac 8ebc f523 59bd afbd 0bbd 5c0f bcbc
000002e0: 7418 493d 5a8a f5bc d5e0 f63c f914 d3bc
000002f0: 829b d83c 85a6 0a3c 057e 353d d764 5d3d
00000300: c2b4 6cbd 8568 2b3c b49e b6bb 8eb5 77bd
00000310: 4e79 80bb a739 383d 4294 eabc cbf0 1abd
00000320: 4dd9 363d 9993 f73b 1385 37bd 4cc0 8f3c
00000330: 8159 003d 9a4d febc ae2b 33bd d021 56bc
00000340: 2439 4a3b d5c8 e23c 2f86 24bd 4d9f 97bc
00000350: e147 093d 1b75 d23b c5a5 6b3c 5a09 c33c
00000360: 3441 353c 7430 d2bc d0d5 2f3d 07fe 52bd
00000370: f6df 323c 8561 cabc 6fed 3fbd 8c8f c43c
00000380: 961e c33a 5484 0f3d 9f23 b63c 3b52 0e3d
00000390: 157d 0f3c 4760 e6bc 1bb0 55bd e9a2 00bd
000003a0: 801d 253d c62e 19bd e516 053c 7c4f 43bd
000003b0: 1188 393c ff3f 6b3d 525a 043d 2365 eabb
000003c0: bf95 433b b026 7d3d 5479 293c 0ca1 613d
000003d0: 0f94 293b 1fce 5e3d 590d bf3c 5420 4b3d
000003e0: f2cd 083d 4429 2bbd f684 433d c262 1d3d
000003f0: c405 1d3d f1f3 9fbb 705f 453d 9397 1f3d
-0.0410307 -0.01453062 0.018100925 -0.050934646 -0.036446497 0.026167544 -0.04737859 -0.030763883
0.056493048 0.030163994 -0.020417813 -0.018357877 0.02163225 0.022407576 -0.04309768 -0.024410201
0.03839751 -0.03610975 -0.009626339 0.04609877 -0.00933127 0.037901763 -0.05027523 0.043408655
-0.05201901 -0.05027947 -0.010500913 0.06482612 -0.023558237 -0.0086735245 0.06439681 -0.0021057702
-0.018124824 0.02697568 -0.010336661 -0.019289233 -0.02407255 0.042575214 -0.023983883 -0.051309787
-0.019999288 -0.01330313 0.042217392 -0.03517875 0.033998918 -0.00871013 0.043078434 -0.021249983
0.026366765 0.019866133 -0.04000478 -0.047264993 0.011058839 0.021037444 0.019853054 -0.010762232
-0.060709257 0.007251798 -0.0067108353 0.026917508 0.03328287 -0.03233872 -0.015206196 -0.019296233
-0.0020114663 0.005439297 0.02798167 -0.045881893 -0.015597575 -0.023449656 -0.0015671987 0.04803329
-0.041305605 -0.032117203 0.013102297 -0.040783472 -0.021543076 0.021018846 -0.012229762 0.04845045
0.036869537 -0.0026067721 -0.04599236 -0.04283355 -0.017072126 -0.061590217 -0.056292176 -0.03645379
-0.03385241 -0.06377648 -0.030189348 0.04338726 0.02968389 0.0146305645 -0.0126103265 0.03305806
-0.034277856 -0.042392552 0.0039178235 -0.05221042 -0.030509014 0.018754939 -0.042278133 0.03954336
0.054427806 0.04770561 -0.016967736 -0.047544513 0.0072937035 0.034075703 -0.027736211 -0.026152145
0.029883647 -0.01785099 0.017078144 -0.07152159 -0.058093563 0.015069326 -0.009030597 -0.060538176
0.010030851 -0.014676767 -0.058005758 -0.027135558 0.05067118 0.046582513 0.020741653 0.0011360418
-0.00646198 -0.005500797 -0.048309244 0.04124595 -0.0443258 0.053557653 -0.0061616073 0.05097314
-0.00681531 -0.012411376 0.026169255 -0.061592408 -0.009713801 0.05118855 0.019792883 0.050306033
-0.058834534 0.04920933 -0.061427586 0.017631313 0.01699925 0.051033657 0.046200257 0.009158274
-0.033534154 0.054301087 0.0051824977 -0.044631694 -0.009528269 0.035989687 0.011968476 -0.029109217
0.017331166 0.0011015051 0.029993713 -0.048151895 0.01640816 -0.0470295 -0.025251294 0.05155796
0.02793507 0.031684276 0.008844658 -0.057610765 -0.03567162 0.03276198 -0.0072392747 0.0547483
-0.052144974 -0.01817394 0.016435545 0.03906763 -0.017416248 -0.053012807 -0.034116443 -0.022956543
0.049095586 -0.029973198 0.030136505 -0.025766836 0.02644134 0.008462553 0.044309635 0.054051246
-0.05778957 0.010461931 -0.005573118 -0.06047588 -0.0039207106 0.044976857 -0.028635148 -0.037827294
0.044640828 0.007555437 -0.044804644 0.017547749 0.031335358 -0.031042863 -0.043742828 -0.013069585
0.0030856812 0.027683655 -0.04016703 -0.018508578 0.033515815 0.0064226515 0.014382784 0.02380817
0.011062909 -0.02565787 0.042928517 -0.05151179 0.010917654 -0.024704704 -0.046857294 0.02399423
0.0014886435 0.035038307 0.022233782 0.03474639 0.008757849 -0.02812208 -0.0521699 -0.031405363
0.040311337 -0.037398122 0.008123134 -0.047683224 0.011323945 0.05743408 0.0323127 -0.0071531697
0.0029843894 0.061804473 0.010343868 0.055085227 0.0025875603 0.05439579 0.023321794 0.049591377
0.03339953 -0.0417874 0.047734223 0.03842426 0.038335577 -0.004881375 0.04818672 0.03896291

conv3.bias f4 [16]
00000000: 0ae1 2f3d 9354 9d3c f911 cdbc 6201 68bd
00000010: eb4f 7a3c 07cc 6cbc 71ec 3e3c 335c 213d
00000020: bdda 0fbd 2260 043d 22d4 5ebb 77c0 42bd
00000030: 4c2e 03bd d6a8 003c c8f9 323b ea5b b03c
0.042939223 0.019205367 -0.025032984 -0.056641944 0.015277843 -0.014452941 0.011653052 0.03939457
-0.035120714 0.032318242 -0.0034000953 -0.04754683 -0.032026574 0.007852754 0.0027309526 0.021528203

conv4.weight f4 [16, 16, 5, 5]
00000000: 097f 133d d087 efbc 0bbe 293d 8075 8839
00000010: 40a8 3fbd b82d 08bc 5819 96bb 9b20 3c3d
00000020: d708 c0bc 0d21 bfbc e48a 02bd 6010 a1ba
00000030: f821 59bc b6b5 f73c f841 4abd a5a1 043d
00000040: c9b0 003d 424b 943c 3ecb 823c 539d 18bd
00000050: 75ca 18bd a073 7abb 1820 dc3b d0cc 61bb
00000060: ef13 0d3d ea73 953c e8bb 42bc e898 6bbc
00000070: 4a7c 11bd 3153 4a3d c4bc 6a3c 95f0 1abd
00000080: 4281 c03c 133c ecbc dd45 f2bc 295c 043d
00000090: 3052 28bd a205 f83c b708 e0bc 0889 2cbd
000000a0: a0e5 4bbd 47bc 9abc 30cd b9bc 6036 01bc
000000b0: f7d0 093d d86f 3fbd bdb1 28bd ce60 de3c
000000c0: 1de5 463d bf1c 2ebd ef7e 113d 70a5 1bbd
000000d0: 6660 bc3c 74ca 173c 3887 363c c6dd 993c
000000e0: e68a c43c aa76 94bc caca e9bc 5704 31bd
000000f0: 0a85 bd3c a052 543b 58a6 843b 9ad1 d63c
00000100: 30aa 82bb 1a5b a1bc 94c3 91bc 7c5a 6f3c
00000110: 6222 ab3c 072c ddbc 8078 e3bb bda1 f6bc
00000120: 1894 d23b d9cc 493d ce8a cc3c 40a3 903b
00000130: e843 8f3b 20c2 77bb 2b68 193d 66a5 9f3c
00000140: e7b3 bebc dfce 3b3d 6dcd edbc dd4a 0f3d
00000150: f5f1 3ebd b1c9 343d d874 913b 9fa6 313d
00000160: 5aa0 20bd 80ed dcbb e738 c2bc 89ac 183d
00000170: 8010 d3bc 20f3 00bb 58fa 10bd b865 4cbc
00000180: bb33 1d3d e05e 173b d15e 493d c482 05bd
00000190: ef3f 333d 9811 7fbc e05c d6bc 8399 eebc
000001a0: e28b aa3c 5458 7dbc b8b8 5dbc ba04 df3c
000001b0: c999 033d 2047 313c 92b9 fd3c eb04 2f3d
000001c0: 5846 e33b 46e8 1dbd 40be d7bb 6e0a 953c
000001d0: d666 85bc 60ff 59bc 88ab 2f3c dd12 44bd
000001e0: e9b7 0d3d 0a69 2bbd a32e 16bd 7a86 e23c
000001f0: 6539 06bd d9d5 273d 7666 14bd 18bd 34bc
00000200: ce22 f23c 8005 0b3a d070 f6bb 1ef4 8e3c
00000210: 0052 2bba 72e5 c93c b50e 383d 4ac8 9e3c
00000220: 0055 9eba db97 4bbd 6254 17bd 182e 0fbc
00000230: 15f0 3bbd f225 47bd 5d74 e9bc d0d3 07bd
00000240: cc9b 6ebc 0ec2 eb3c 4bf4 40bd 5b59 22bd
00000250: 1300 1c3d 6a75 a83c c012 5f3a 88d4 45bc
00000260: b637 19bd 5043 bb3b 4550 28bd 90b1 8dbc
00000270: cd77 ffbc 802c 08ba dd6f 22bd 725b 8c3c
00000280: 0093 1639 f28b 1fbd ce05 1ebd 12e4 ed3c
00000290: 12b3 28bd e8f6 8fbb 8106 4c3d 81d2 0e3d
000002a0: 90e8 c9bb 28bf 1cbd 86ae 1cbd 0787 2d3d
000002b0: c0c0 27bd 65ac 0cbd 775b 213d 38d7 34bd
000002c0: c07a 303c c265 2dbd 9556 253d 00e9 b939
000002d0: 1d07 34bd ccf4 87bc c702 d7bc 5a01 9b3c
000002e0: b852 31bc 68f5 1bbd 7fa2 3ebd 0055 75bc
000002f0: b04d abbc c2af b73c 2ec6 03bd a2ae ea3c
00000300: 9449 6abc caab 87bc 40f9 dcbc c8b3 48bc
00000310: a2fe 15bd e733 d2bc 1856 49bd d55c 26bd
00000320: ca37 fd3c bd76 073d c7a1 ffbc 0d55 d2bc
00000330: b144 073d 43fb 283d 1db6 d2bc f43b 3d3c
00000340: a8ce 07bc 3f22 333d 7ed2 10bd f0fa 19bd
00000350: 5798 0e3d 1884 3f3c 97cc 1a3d e2b8 833c
00000360: be92 13bd ee82 f23c 0e80 ae3c f590 053d
00000370: 5017 13bb 4721 abbc 62ee 913c c6dd ce3c
00000380: 107e 10bd bd07 263d 972b 9fbc 0ee5 853c
00000390: caad e83c f4ba 2f3c 897f 023d ecc5 83bc
000003a0: ccd6 133c 406d ee3b 7b2f 46bd d4bf 383c
000003b0: 0b92 1d3d f5de 0fbd 73e4 093d be12 bc3c
000003c0: 770e 48bd 005f 213c 80aa 8bbc 3a6c cf3c
000003d0: 8263 23bd 328a d13c 0096 a6b8 ae15 df3c
000003e0: 9810 acbb f0bf c3bb ceb5 f73c a3a2 bcbc
000003f0: 98df a9bb 34a8 0d3c 3787 9ebc 7d88 b7bc
0.036009822 -0.029239565 0.041441005 0.00026027486 -0.046791315 -0.008311681 -0.004580658 0.045929532
-0.023441715 -0.02333119 -0.031870738 -0.0012288205 -0.013252728 0.030238014 -0.04937932 0.03238072
0.031418595 0.018102292 0.015966054 -0.03725941 -0.037302453 -0.003821589 0.006717693 -0.0034454353
0.03444284 0.018243749 -0.011885621 -0.014379717 -0.035518922 0.049395744 0.014327232 -0.037827093
0.023499135 -0.02883724 -0.029574329 0.032314453 -0.041094005 0.030276123 -0.027347906 -0.04212287
-0.049779534 -0.018888606 -0.022680849 -0.007886499 0.03364655 -0.046737522 -0.04118513 0.02714577
0.048558343 -0.042507883 0.035521444 -0.03799957 0.022995185 0.009264577 0.011140637 0.018782508
0.023992013 -0.01812299 -0.02853908 -0.04321703 0.023134727 0.003239788 0.00404815 0.026222993
-0.003987573 -0.01969676 -0.017793454 0.0146089755 0.020890418 -0.026998533 -0.006941855 -0.03010642
0.0064263456 0.049267624 0.024968531 0.004413992 0.0043721087 -0.0037804917 0.037452858 0.019488048
-0.023279143 0.045851585 -0.029028619 0.034983505 -0.046617467 0.04413766 0.0044389777 0.043371793
-0.039215423 -0.0067421794 -0.023708774 0.037273917 -0.025764704 -0.0019676164 -0.035394996 -0.0124754235
0.038379412 0.0023097321 0.04916269 -0.03259541 0.043762144 -0.0155681595 -0.026167333 -0.029125934
0.020818654 -0.015462954 -0.01353281 0.027223933 0.032129083 0.01082018 0.030972276 0.0427293
0.006935876 -0.03855159 -0.006583959 0.01819345 -0.016284388 -0.013305515 0.010722049 -0.047869552
0.03459922 -0.04184822 -0.03666557 0.027652014 -0.03276958 0.040975425 -0.036230527 -0.011031412
0.029557612 0.0005303249 -0.0075207725 0.017450389 -0.0006535351 0.02464554 0.0449359 0.019382615
-0.0012079775 -0.049705368 -0.036945708 -0.008739017 -0.045883257 -0.04862017 -0.02849787 -0.033160985
-0.014563512 0.028779056 -0.047107976 -0.039635997 0.03808601 0.0205638 0.0008509569 -0.012074597
-0.037406646 0.0057148114 -0.041092176 -0.017296582 -0.031185055 -0.00051946193 -0.039657462 0.017133448
0.00014359877 -0.03895182 -0.038579755 0.029039416 -0.0411864 -0.004393447 0.04981089 0.03486872
-0.006161757 -0.03826824 -0.038252376 0.0423651 -0.040955305 -0.034344096 0.03939387 -0.04415056
0.010771453 -0.042333372 0.040365774 0.00035459548 -0.043952096 -0.01659622 -0.026246442 0.018921543
-0.010822944 -0.038075835 -0.046541687 -0.014973879 -0.020911068 0.022422675 -0.03217142 0.028647725
-0.014299769 -0.016561408 -0.02697432 -0.012249894 -0.03661979 -0.025659515 -0.04915437 -0.040615875
0.030910391 0.033072222 -0.031205071 -0.025675321 0.033024494 0.041255247 -0.025721604 0.0115499385
-0.008289017 0.04373383 -0.03535699 -0.03759283 0.03481325 0.011689208 0.03779277 0.01607937
-0.036028616 0.029603448 0.021301296 0.032608945 -0.0022444315 -0.020889891 0.017813865 0.025252234
-0.035276473 0.040534724 -0.019429965 0.016344573 0.028403182 0.010725725 0.03185991 -0.016085587
0.00902338 0.007276207 -0.048385125 0.011276204 0.038469356 -0.035124738 0.03366513 0.022958156
-0.04884192 0.00984931 -0.017049074 0.025320161 -0.03988982 0.025578592 -7.9434365e-05 0.027232017
-0.0052510016 -0.0059738085 0.030238058 -0.02302677 -0.005184125 0.00864606 -0.019351585 -0.02240395

conv4.bias f4 [16]
00000000: 77f3 a8bc 9009 953c b79a 0a3d 8de3 553c
00000010: 8ce4 1d3c e788 9f3c c7c6 d4bc 49f4 a8bc
00000020: 544f 39bc 7c4f 3bba 08bb 713c 0d1d 22bd
00000030: 290e 0d3c 88f6 e03c 9e45 f53c 98c2 58bd
-0.020623906 0.018193036 0.033838954 0.013054741 0.009637009 0.01947446 -0.02597369 -0.020624297
-0.011310417 -0.0007145328 0.014754064 -0.039578486 0.008609333 0.027461305 0.029940423 -0.052919954

fc1.weight f4 [50, 1600]
00000000: 95ba bfbc 0a86 073c 1d90 42bc ea53 cabc
00000010: 9eba 723c c637 19bc c257 473c 2848 4c3b
00000020: 029a cabc a016 c93b 305f 5fbc 2539 843c
00000030: 9fe8 aebc 402a 653a e20f 203c 128f 333c
00000040: 61c8 973c 80f8 f7b9 4041 e339 4e68 113c
00000050: 64ae 08bc e0f1 9f3b 31ba ac3c 807a 8db9
00000060: 5388 68bc 1d65 c43c d0e4 00bc 4a05 b4bc
00000070: d1ee 813c f21f b0bc cc63 82bb 0ab8 afbc
00000080: 348b 883b 5442 b2bb d816 a63b 003d edba
00000090: 27a2 4dbc 7ae6 2bbc 081d 81bc 6734 39bc
000000a0: c3d5 36bc 4d3e ae3c 680d 6e3b 19a7 a23c
000000b0: 83c2 43bc 7dd5 c7bc 307e 143b 21e3 ae3c
000000c0: 40b7 713b 937e 35bc d0bf 1ebb 963d 073c
000000d0: f75e 54bc 9344 3bbc da51 203c 0611 413c
000000e0: a0bd 0b3a 78e8 c0bb 36cb 303c c0e3 07ba
000000f0: da1d cabc 5dd2 73bc 0597 96bc d819 c63b
00000100: 1050 233b 0314 bbbc a556 8ebc e7d8 23bc
00000110: f464 a13b d30a 93bc c088 a73b 2aad 173c
00000120: f177 8b3c 7038 273b fde2 57bc 403c 6c3b
00000130: a8f0 15bb 5986 b53c aae2 043c f1a4 c53c
00000140: 03d5 3ebc 6c81 edbb ed86 a5bc a7a3 afbc
00000150: aa78 13bc 1d8b 45bc 291b c43c 1bf6 8fbc
00000160: 693a 863c 9ec0 633c 1aaa 773c 8539 babc
00000170: aeb6 83bc da1f 33bc 15f5 b1bc c0eb 2abb
00000180: ea10 08bc 8d2e 90bc 126f 2b3c 40ff 863b
00000190: 31c6 5c3c 43a7 45bb 17a9 cf3c 232c 453c
000001a0: 74ad 033d d6f6 3b3c 0203 f03c 3b80 873c
000001b0: 8ada 9e3b 8bc8 e5bb 5bd6 f8bb 18df 14b9
000001c0: 0eba d83c 41e5 9d3c 7fe8 963c f465 213c
000001d0: 1fb4 9dbc cbbc 003d 0cff 2e3c 881a 90bb
000001e0: 05c4 d53c e843 333c fcf2 2e3c 294b a33c
000001f0: a760 2a3c 63e6 6a3c dccf 043c a0d3 af3c
00000200: 954b 493c ef27 763c 30ba 973c 60d8 193d
00000210: 770d 3f3c 0503 02bc c36a fd3b 3d91 d13c
00000220: 387c 09bb 11a8 263c 9f18 093d 2984 683c
00000230: 33c5 1c3b 4586 883b 18e7 003d 05f9 ab3c
00000240: 9d91 e93c 0eba 753c 1491 d83c 87df 6ebc
00000250: 86d3 143d 5517 c63c 0f96 003d f5f4 7d3c
00000260: 1689 8f3c ca15 12bb d221 d13c 3057 8cbc
00000270: e33b 123c 481f f13c 7e64 6b3c 3929 a5bb
00000280: 7fb6 0c3d 696e e03c 159d a6ba c900 42bc
00000290: 26c2 de3c 53c2 a4bc 5cad fd38 6f97 873c
000002a0: 8c46 adbb de35 8f3c 2b56 693c 4017 22ba
000002b0: 7af8 0a3a 7931 053d f6da 4c3c 8ee8 943b
000002c0: f34e e7ba 12ca 003d 30a5 033d f38c 2f3c
000002d0: d22b a33a cace 2fbb 2099 073c e746 8e3c
000002e0: affc 69bb 0270 123b 74ad bd3c ffac 803c
000002f0: 8706 05bb 05c3 0f3c 0d5f eb3c 6fa0 423b
00000300: 6317 48bc 9e06 c03c 0c57 a13c 8eaa 0e3d
00000310: 1062 ea3c 2f73 b73b 52e6 36bc 0e56 123b
00000320: 9068 153d ad25 4c3c 3ebc 533c daa5 f73c
00000330: 5526 c53c 94a2 003c 7e3a 0c3d c653 153d
00000340: 7e58 983c 0b95 b9bb 061d 0e3d 218f d53c
00000350: 9f44 f53c 811f bb3c d897 bf3c 93fa 003d
00000360: 1f47 143c 2244 1a3c 8038 033c c2f5 e43c
00000370: 1d5f 173b 9c16 a7bb c335 d83b 7f4f 743b
00000380: cafd e33c cba9 ab3a ae7c 293d a34a c53c
00000390: 7e5d fe3c 18ac ee3c 831a c33c 3a28 d9bb
000003a0: fb50 09bc 22d9 f93b 1f31 cabb b1c0 173c
000003b0: d077 b4bb acb4 113d 8cc6 d73c 4f62 023c
000003c0: 2962 1e3c 08a5 d83c 4415 f43c 6551 dc3c
000003d0: c32a ad3c cebd 913b 73fa 073d 7ec8 c63b
000003e0: 8ca9 bd3b 9676 af3b a066 e13c 1049 873c
000003f0: 4057 df3b 24a4 ce3c e269 0c3d 5b69 093d
-0.023404399 0.0082717035 -0.01187518 -0.024698216 0.014815001 -0.009351676 0.012166919 0.0031170938
-0.02473164 0.0061367303 -0.013633534 0.01614053 -0.021351157 0.00087419525 0.009769412 0.010959404
0.018528165 -0.00047296658 0.0004334543 0.008874966 -0.008342359 0.0048811287 0.021084877 -0.00026984885
-0.0141926585 0.023973996 -0.007867053 -0.021975178 0.015860947 -0.021499608 -0.003979182 -0.021450061
0.004166985 -0.005440036 0.005068641 -0.0018099844 -0.012550867 -0.010491962 -0.015760913 -0.011303998
-0.011159363 0.021269942 0.0036323909 0.019855069 -0.011948231 -0.024393791 0.0022658221 0.021348538
0.0036882907 -0.011077541 -0.0024223216 0.008254429 -0.0129620945 -0.011429924 0.00978514 0.011783844
0.00053306855 -0.0058870874 0.010790637 -0.00051837787 -0.024672437 -0.0148816975 -0.018382559 0.0060455613
0.0024919547 -0.02283669 -0.0173753 -0.010000444 0.0049253646 -0.017949497 0.0051127374 0.009257594
0.017024966 0.0025515817 -0.013176677 0.0036046654 -0.0022879038 0.022158789 0.008110682 0.024126502
-0.011647466 -0.0072480943 -0.02020594 -0.02144034 -0.0090009365 -0.012057093 0.023938732 -0.017573407
0.016385274 0.013900904 0.015116239 -0.022732506 -0.01607832 -0.010932887 -0.02172331 -0.002608046
-0.008304814 -0.017600322 0.010463493 0.0041197836 0.013474987 -0.003015951 0.025349183 0.012034449
0.03214784 0.0114724245 0.02929831 0.016540637 0.004847829 -0.007012432 -0.0075939125 -0.00014197489
0.026455905 0.019274356 0.01842141 0.009850968 -0.019250927 0.031430047 0.010680925 -0.004397694
0.026094446 0.010941483 0.010678049 0.0199333 0.01039902 0.014337155 0.008106198 0.021463215
0.012286087 0.015024169 0.018521398 0.037559867 0.011660925 -0.00793529 0.0077336743 0.02558195
-0.002097858 0.010171906 0.033470746 0.014191666 0.002392125 0.004166397 0.03147039 0.020992765
0.028511817 0.014997972 0.026436366 -0.01457966 0.036334537 0.024181047 0.031393107 0.015500297
0.017521422 -0.002229082 0.025528822 -0.017131418 0.008925411 0.029433861 0.014367221 -0.0050403145
0.03435373 0.027396398 -0.0012711609 -0.0118410075 0.027192187 -0.020112192 0.00012096271 0.016551701
-0.005287951 0.01748174 0.014241735 -0.0006183274 0.0005301308 0.032517884 0.012503376 0.0045443242
-0.001764743 0.03144271 0.032139957 0.010714757 0.0012448973 -0.0026826137 0.008276254 0.017367793
-0.003570359 0.0022344594 0.023153998 0.015707491 -0.002029808 0.008774524 0.028731847 0.0029697677
-0.012212607 0.023440655 0.019694827 0.034830622 0.028611213 0.0055984478 -0.011163311 0.0022329125
0.03647667 0.0124601545 0.012923298 0.030230451 0.02406613 0.007851262 0.03423547 0.036456846
0.018596884 -0.0056635193 0.034695648 0.026069226 0.029939948 0.02284217 0.023387834 0.031488966
0.00905016 0.009415658 0.008009076 0.027949218 0.0023097463 -0.005099131 0.006598206 0.0037278829
0.027830977 0.0013096867 0.04137867 0.024083441 0.03105044 0.029134795 0.023816353 -0.00662711
-0.008381124 0.007624761 -0.0061704065 0.00926225 -0.005507447 0.035572693 0.026339792 0.007958009
0.009666958 0.02644588 0.029795296 0.02689428 0.021138554 0.0044476753 0.03319783 0.006066381
0.005788034 0.0053547127 0.027514756 0.016514331 0.006815821 0.025224753 0.034280665 0.03354774

fc1.bias f4 [50]
00000000: 218c 5f3d 9a4b 91bc d492 a4bb 5b03 abbc
00000010: 964f c8bc 6afe c1bc 9f79 0bba 66e2 173c
00000020: bd3b 083d fcff 113b f335 7dbc 5191 0e3d
00000030: b883 0e3d f4a9 0a3c 42ce babc b72d c73c
00000040: 730f 19bc b7f0 4d3c 290a ca39 d654 8b3c
00000050: a954 14bc 413f 1b3d 30c6 773b 6ab0 883c
00000060: 7ac0 efbc 3d51 74ba 3864 e03c 1034 8dbc
00000070: ce7f 2c3d f911 833b 3563 3c3d a0c2 5e3d
00000080: 93f7 2f3d 6c44 8fb9 21c7 0a3d b94e 033d
00000090: 4891 fbbb ae0c 283c 2189 1d3d 7ed4 cb3c
000000a0: b86c cabb 4119 2f3d 4b8c 9abc c11b 783d
000000b0: c9ae 5d3d 5c25 b2ba 2429 e5bc 634d 993b
000000c0: aa8f 2c3c e9b8 ab3c
0.054576997 -0.017736245 -0.005022386 -0.020875623 -0.024452012 -0.023680884 -0.0005320552 0.009270286
0.033260096 0.0022277823 -0.015454757 0.034806553 0.034793586 0.008463372 -0.02280343 0.02431379
-0.009342062 0.012569598 0.00038536012 0.017008226 -0.009053388 0.03790212 0.0037807338 0.016685683
-0.029266585 -0.0009319967 0.027391538 -0.01723674 0.04211407 0.0039999452 0.04599305 0.054384828
0.042960715 -0.00027326064 0.03388131 0.032057498 -0.007677231 0.010256929 0.038460854 0.024881598
-0.006177511 0.042748693 -0.018865725 0.060573343 0.054121766 -0.0013591456 -0.027973719 0.0046784147
0.010532299 0.020962195

fc2.weight f4 [136, 50]
00000000: dab1 9ebd c755 81bd 03af f73d b8f9 5d3d
00000010: ee89 0f3e 69de 35bd c5e4 06be 3ebe 7fbd
00000020: a832 86bd 386f 88bd ec9f a4bb 54b1 94bd
00000030: a3ca 60bd 5d26 56bd 939c 35bd 13af 60bd
00000040: 6d01 a63d 2f12 93bd 7c2b 433d f59d ebbc
00000050: 21a0 003e bc06 b7bd 9828 413d f1ff aebd
00000060: ffc2 83bd 3aa0 8a3c 96ae 96bd fb78 ec3d
00000070: 616c 9abd 6362 523c 5a9d a7bd 857a 8cbd
00000080: ce0c 4dbd 5705 3a3d 31e3 8ebd bd79 4dbd
00000090: e06d 4ebd f0a3 82bd 7df1 9bbd 94d8 babd
000000a0: 6998 9fbd c362 70bd 7a57 8f3d b830 a9bd
000000b0: b8ff 6ebd 0bd4 c53d d684 153d de42 e73d
000000c0: c254 a43d 6161 a8bd bfad 453b 67a1 83bd
000000d0: 710b 1ebd 94b4 9d3d b409 0f3e 589b b33c
000000e0: 1233 bfbd ab18 2b3d cfd0 253c b802 653d
000000f0: e4c0 bd3d 4ae1 abba 32bc 883c 7833 fcbd
00000100: be3c adbd 30ea 653c a7a7 6cbd eb3c d73b
00000110: cf64 89bd 4385 af3d 1a5c e03c df20 9b3b
00000120: ee5c 8f3d 42a6 4dbd ed98 0e3d b2e1 083e
00000130: 225c 243b 3e4d 0cbd 322d 3dba 708f 05be
00000140: 84b2 603a bd08 843b aab3 38ba 6c89 bb3d
00000150: fc6d eab9 1371 353b 9f62 0fbe 588c ec38
00000160: ee44 ebbb 6f24 9c3b 525f 9b3d 1342 6dbb
00000170: eab9 f83d a82b 3e3c 1293 9439 bfbf 8a3d
00000180: 798b 84bd d756 a5bd 19da b2bd 42be 19bb
00000190: 99c3 9cbd a32f 84bd be8c 843c 51e0 0dbe
000001a0: d50f d23d 838c 943c a719 c6bd a09f 80bd
000001b0: b5bf 11bd 64f5 3bbc 83a4 14bd a9ed 92bd
000001c0: 0115 64bd 1ed3 db3d 7d6a ef3d 0bdd 83bd
000001d0: 25fe dfbd 01c0 99bd a58f 0e3d b75f 273c
000001e0: 82bf 4b3d 58bd 9abd aa9d 84bd a51f 063e
000001f0: b79c a1bd ff0d 07bd b998 9cbd 64b3 bbbd
00000200: 67c6 90bd 3715 3f3d 4448 aebd bbb6 97bd
00000210: b22b a7bd c04f 09be 2dde 53bd 1286 84bd
00000220: a0c3 933c 18e6 91bd 6d74 98bd af80 9fbd
00000230: 8e8b 9d3d edb5 78bd 40d1 993c f4cc abbd
00000240: cc9d 78bd 58e3 ffbc 4242 a03d 0351 12be
00000250: affe 2f3d 5532 8bbd 8c1e a83b 0d48 afbd
00000260: 5da3 643d 7038 463d 9501 ee3b 69f0 bb3d
00000270: 39a3 15bd 22d9 28bd 869c 823c 06cc 1abe
00000280: 11c7 d53d 5040 0e3c 9b12 c53c de65 03be
00000290: 41a7 a93c 94dc ab3c b665 bf3d 43da c93c
000002a0: 760b 31bd 7d6c bcbd 4c6f 6fbd 3138 3f3c
000002b0: eab9 e03d e2c3 013e 78e1 e93d d2da ae3d
000002c0: 44e1 153c ebbb 803d d1b7 113c 1640 7d3d
000002d0: 888a 243c 6d1c 593c 0002 043c 2922 743c
000002e0: 9d4e 463c 9748 2a3c d821 a0bc 7b57 163c
000002f0: f069 323b 39ef 6a3c 9c19 5b3d c67a cd3b
00000300: d602 c03d 3964 bd3c ac1d 2b3c 42b7 0ebd
00000310: 3f20 c9bd 171d 9b3d 07af 90bd a4b4 dc3b
00000320: c79d 91bd 4dd1 8b3d acaa 803b 64a9 58bd
00000330: cdc1 93bd 8d8b 7cbd 2fbf a63d 07b2 c1bd
00000340: 0fde 56bd 70a0 b43d 7e38 1b3d 1c1a 9bbd
00000350: eec3 85bd 7e21 0ebe 874c 0c3d c694 c0bd
00000360: d998 e7bd c7b8 c9bd 9d75 e73c fdc4 da3c
00000370: c6f4 d5bd 2355 76bd 7905 e3bd 421a a2bd
00000380: 8b4c 543d d482 073d 1f11 bbbd be10 f93d
00000390: 12c7 a8bd 1804 d83d 44a7 d0bd a8f7 babd
000003a0: 33fa 9bbd 0d90 c63d 6d4a 8cbd 73cf 5dbd
000003b0: cdf1 f3bd e3a0 99bd 76ff 99bd a29e a2bd
000003c0: 1086 643d 8843 94bd 34ab 323d 2b4f b5bd
000003d0: 2b46 9cbd 3c7a b63d cbac 0b3d b077 023d
000003e0: 7646 bdbc a6ca 64bd 8a55 053d 874e c5bc
000003f0: 246c 8bbd 804d 143c 399b bc3d ad1a 963d
-0.07748766 -0.06315189 0.12093928 0.05419323 0.1401746 -0.04440156 -0.13173206 -0.06243729
-0.06552631 -0.06661838 -0.005023947 -0.07260385 -0.05488075 -0.05228268 -0.044338774 -0.054854464
0.08105741 -0.071812026 0.04764889 -0.028761843 0.12561084 -0.08936831 0.047157854 -0.08544911
-0.06433677 0.016922105 -0.073575184 0.11546513 -0.07540203 0.01284084 -0.08184309 -0.06859306
-0.05006104 0.04541525 -0.06976927 -0.050164927 -0.050397754 -0.06378925 -0.076144196 -0.0912334
-0.07792742 -0.058687937 0.06999107 -0.082612455 -0.05834934 0.096595846 0.036503635 0.11292051
0.08023979 -0.082216986 0.0030163375 -0.064272694 -0.03858513 0.07700458 0.13968545 0.02192466
-0.09335913 0.041771572 0.010120585 0.055910796 0.092653066 -0.0013113406 0.016691301 -0.123145044
-0.08458851 0.014032885 -0.057777073 0.0065685413 -0.06708681 0.085703395 0.027387667 0.004734143
0.07000147 -0.050207384 0.03481381 0.13367346 0.002507933 -0.03425335 -0.00072165125 -0.13042998
0.0008571523 0.004029362 -0.0007045815 0.091570705 -0.00044713903 0.0027685806 -0.14002465 0.00011279498
-0.007179848 0.0047650854 0.0758654 -0.0036202713 0.12144835 0.011607088 0.00028338336 0.06774854
-0.06471915 -0.08073204 -0.08733005 -0.002345935 -0.07654495 -0.064543985 0.016180392 -0.13855101
0.10256926 0.018133407 -0.096728615 -0.06280446 -0.035583217 -0.01147208 -0.036289703 -0.07174236
-0.055684093 0.10733627 0.11690233 -0.06438645 -0.10937146 -0.07507325 0.03480496 0.010215691
0.049743183 -0.07555646 -0.064753845 0.13098009 -0.07891219 -0.032972332 -0.07646317 -0.091650754
-0.07069092 0.04665109 -0.08509877 -0.074079 -0.08162631 -0.13409328 -0.051725555 -0.064708844
0.018037617 -0.07123965 -0.074440815 -0.07788216 0.076926336 -0.060720373 0.018776536 -0.08388701
-0.06069736 -0.031236336 0.07825138 -0.14288716 0.042967495 -0.067967094 0.0051305946 -0.085586645
0.055819858 0.048393667 0.007263372 0.09176714 -0.036532614 -0.0412227 0.015943777 -0.15116891
0.104383595 0.0086823255 0.024056723 -0.12831828 0.020709636 0.020979203 0.09345572 0.024640208
-0.04322382 -0.0920038 -0.05845575 0.011671112 0.1097296 0.1267238 0.11419958 0.085378304
0.009147946 0.062858425 0.008893923 0.061828695 0.010042794 0.013251406 0.008057117 0.014900723
0.012103704 0.010393283 -0.019547388 0.00917613 0.0027223788 0.014339262 0.05349122 0.0062707392
0.09375541 0.023119079 0.010444086 -0.034842737 -0.098206036 0.07573908 -0.07064634 0.006735401
-0.07110172 0.0682703 0.0039265957 -0.05289592 -0.07214699 -0.061656523 0.08141934 -0.09457784
-0.052457865 0.088196635 0.037895672 -0.07573339 -0.06531511 -0.13879964 0.03425267 -0.09403376
-0.1130845 -0.098496966 0.028254325 0.02670526 -0.104470775 -0.060139786 -0.11085028 -0.079151645
0.05183081 0.03308375 -0.09134125 0.121613964 -0.08241095 0.10547656 -0.101881534 -0.09129268
-0.07616081 0.09695444 -0.06850133 -0.054152917 -0.11911354 -0.0750139 -0.075194284 -0.07940413
0.055791914 -0.07239443 0.043620303 -0.08852991 -0.07630571 0.08910033 0.034100335 0.031852424
-0.023104887 -0.055857323 0.03255228 -0.024085296 -0.068077356 0.009051681 0.09209294 0.07329307

fc2.bias f4 [136]
00000000: 05b9 a8be 1265 6cbd 7cd3 a0be c5bc f03d
00000010: 7c51 6bbe 24e0 583e 7693 95be c4f8 b03e
00000020: cf14 a4be 1cce df3e c5fc 47be 1b00 f93e
00000030: 1eea 92bd 6928 fc3e 1b66 8c3c 676f bf3e
00000040: 64e6 253e 3f74 083f debe bf3e 9859 a63e
00000050: 919c 813e c273 bc3e de2e b93e 2404 cb3e
00000060: cd2a d53e a2f9 ce3e a7f7 c73e 12fb ab3e
00000070: 2348 c83e b679 693e 656b cf3e e4a9 f63d
00000080: f7fd c33e b99c 69bc 059a 36be 9c7f 10be
00000090: 083e 26be 018c 09be 0449 8dbd c512 36be
000000a0: 9d80 4abc e201 25be 817f b53c 066d 13be
000000b0: 8f0e a33e 1f56 31be 0f4e bd3e 03de c6bd
000000c0: d57f d33e fe27 28be 7c98 cb3e da08 42be
000000d0: b208 d03e 2752 23be 9b6e e73d af68 19bd
000000e0: f375 033e 50e3 cc3c b286 303e d34c f53d
000000f0: 288a 1f3e 0fe6 143e e8e1 f53d 58c6 743e
00000100: e013 c93d a8c8 1c3e e7b6 4a3e 3f1f 903e
00000110: f4ed 863e 83a3 443e 001a 8f3e 695e 6f3e
00000120: 7479 c3bd 6319 75bd be9a e0bd 65a0 9cbd
00000130: 8429 bdbd 7a00 00be 99ea 87bc 92b4 7fbd
00000140: ade6 aabc 84c9 eebc 2068 d5bd d580 0bbd
00000150: 49d2 a73e 184a aebd 9e70 873e 9966 99bd
00000160: bdfb 7d3e d381 c0bd 5995 d93e 9e66 c1bb
00000170: ffb4 bc3e 85a6 22bd d958 c73e dc8a 053c
00000180: 304d 00bc f4a0 b03e 7e07 413d 6369 d43e
00000190: 0588 1a3e e680 cf3e 972e 273e 5fb2 923e
000001a0: aeff 283e ce48 c63e 4427 4c3e 7d7b b93e
000001b0: 97c9 583e 108b be3e 1deb 943e d803 a63e
000001c0: 1c35 7c3e d7fd d43e bba6 6b3e f35b ef3e
000001d0: 9fe5 a33d ac2c a33e 831d da3c 6b2b e83e
000001e0: 04bc 57bd 45a9 773e 61b8 d43d e8cf b43e
000001f0: 5ff3 2b3e 22b2 c03e e04f 863e 9804 b23e
00000200: 2c8d ad3e f607 b03e 3aff 213e 68db 8f3e
00000210: b31a f43d 3114 7e3e e790 b83d 40d9 b03e
-0.3295366 -0.057713576 -0.3141135 0.11754755 -0.22980303 0.21179253 -0.29214066 0.34564793
-0.32047126 0.43711936 -0.19530018 0.48632893 -0.071735606 0.4924958 0.017138531 0.3738968
0.16201168 0.5330238 0.37450308 0.3249023 0.25314763 0.36807066 0.3616857 0.39651597
0.41634217 0.4042483 0.3905613 0.3358999 0.39117536 0.22800335 0.40511623 0.12044123
0.38279697 -0.014258557 -0.17832191 -0.14111179 -0.162346 -0.13432314 -0.06898692 -0.17780598
-0.012359765 -0.16114 0.022155525 -0.14397058 0.31847045 -0.17318009 0.36973616 -0.09710314
0.41308466 -0.16421506 0.39764774 -0.18948689 0.40631634 -0.15949307 0.11300393 -0.03745335
0.12837963 0.025010735 0.17238882 0.11977544 0.15580046 0.14540885 0.12005979 0.23903787
0.09818244 0.1531092 0.19796334 0.2814884 0.2635342 0.19203 0.27949524 0.23375858
-0.0954465 -0.059838664 -0.10967015 -0.0764778 -0.09236434 -0.12500182 -0.016591357 -0.062428065
-0.020861948 -0.029148825 -0.10420251 -0.03405841 0.32777622 -0.08510226 0.26453108 -0.07490272
0.24803062 -0.09399762 0.42496756 -0.0059021255 0.3685684 -0.039709587 0.38934973 0.008150782
-0.007830903 0.34497797 0.047126286 0.41486654 0.1509095 0.4052803 0.16326366 0.2865171
0.16503784 0.3872742 0.19936854 0.36227027 0.2117065 0.3721547 0.29085627 0.32424808
0.24629635 0.41599914 0.23012821 0.4674984 0.08002781 0.3187002 0.0266254 0.45345625
-0.05266954 0.24185665 0.1038673 0.3531487 0.16792057 0.37635905 0.26232815 0.3476913
0.33896768 0.34381074 0.15820017 0.2809708 0.11919155 0.2481239 0.09012013 0.3454075
